…
 [ 18 191]]

Classification report:
              precision    recall  f1-score   support

           0       0.69      0.44      0.54        94
           1       0.78      0.91      0.84       209

    accuracy                           0.77       303
   macro avg       0.74      0.68      0.69       303
weighted avg       0.76      0.77      0.75       303


================================================================================
MODEL: CNN
================================================================================
--- Model / Architecture ---
CNN1D(
  (conv_layers): Sequential(
    (0): Conv1d(1, 32, kernel_size=(3,), stride=(1,), padding=(1,))
    (1): ReLU()
    (2): BatchNorm1d(32, eps=1e-05, momentum=0.1, affine=True, track_running_stats=True)
    (3): Dropout(p=0.2, inplace=False)
    (4): Conv1d(32, 64, kernel_size=(3,), stride=(1,), padding=(1,))
    (5): ReLU()
    (6): BatchNorm1d(64, eps=1e-05, momentum=0.1, affine=True, track_running_stats=True)
    (7): Dropout(p=0.2, inplace=False)
    (8): Conv1d(64, 128, kernel_size=(3,), stride=(1,), padding=(1,))
    (9): ReLU()
    (10): BatchNorm1d(128, eps=1e-05, momentum=0.1, affine=True, track_running_stats=True)
    (11): Dropout(p=0.2, inplace=False)
  )
  (classifier): Sequential(
    (0): Flatten(start_dim=1, end_dim=-1)
    (1): Linear(in_features=128, out_features=256, bias=True)
    (2): ReLU()
    (3): Dropout(p=0.3, inplace=False)
    (4): Linear(in_features=256, out_features=128, bias=True)
    (5): ReLU()
    (6): Dropout(p=0.2, inplace=False)
    (7): Linear(in_features=128, out_features=1, bias=True)
    (8): Sigmoid()
  )
)

--- Test-set metrics ---
Accuracy : 0.7030
ROC-AUC  : 0.6640
Precision: 0.7692
Recall   : 0.8134
F1       : 0.7907

Confusion matrix:
[[ 43  51]
 [ 39 170]]

Classification report:
              precision    recall  f1-score   support

           0       0.52      0.46      0.49        94
           1       0.77      0.81      0.79       209

    accuracy                           0.70       303
   macro avg       0.65      0.64      0.64       303
weighted avg       0.69      0.70      0.70       303


================================================================================
MODEL: Deep MLP
================================================================================
--- Model / Architecture ---
DeepMLP(
  (network): Sequential(
    (0): Linear(in_features=11, out_features=512, bias=True)
    (1): BatchNorm1d(512, eps=1e-05, momentum=0.1, affine=True, track_running_stats=True)
    (2): ReLU()
    (3): Dropout(p=0.3, inplace=False)
    (4): Linear(in_features=512, out_features=256, bias=True)
    (5): BatchNorm1d(256, eps=1e-05, momentum=0.1, affine=True, track_running_stats=True)
    (6): ReLU()
    (7): Dropout(p=0.3, inplace=False)
    (8): Linear(in_features=256, out_features=128, bias=True)
    (9): BatchNorm1d(128, eps=1e-05, momentum=0.1, affine=True, track_running_stats=True)
    (10): ReLU()
    (11): Dropout(p=0.2, inplace=False)
    (12): Linear(in_features=128, out_features=64, bias=True)
    (13): BatchNorm1d(64, eps=1e-05, momentum=0.1, affine=True, track_running_stats=True)
    (14): ReLU()
    (15): Dropout(p=0.2, inplace=False)
    (16): Linear(in_features=64, out_features=32, bias=True)
    (17): ReLU()
    (18): Dropout(p=0.1, inplace=False)
    (19): Linear(in_features=32, out_features=1, bias=True)
    (20): Sigmoid()
  )
)

--- Test-set metrics ---
Accuracy : 0.6832
ROC-AUC  : 0.6477
Precision: 0.7703
Recall   : 0.7703
F1       : 0.7703

Confusion matrix:
[[ 46  48]
 [ 48 161]]

Classification report:
              precision    recall  f1-score   support

           0       0.49      0.49      0.49        94
           1       0.77      0.77      0.77       209

    accuracy                           0.68       303
   macro avg       0.63      0.63      0.63       303
weighted avg       0.68      0.68      0.68       303


================================================================================
MODEL: ANN
================================================================================
--- Model / Architecture ---
ANN(
  (network): Sequential(
    (0): Linear(in_features=11, out_features=256, bias=True)
    (1): BatchNorm1d(256, eps=1e-05, momentum=0.1, affine=True, track_running_stats=True)
    (2): ReLU()
    (3): Dropout(p=0.2, inplace=False)
    (4): Linear(in_features=256, out_features=128, bias=True)
    (5): BatchNorm1d(128, eps=1e-05, momentum=0.1, affine=True, track_running_stats=True)
    (6): ReLU()
    (7): Dropout(p=0.2, inplace=False)
    (8): Linear(in_features=128, out_features=64, bias=True)
    (9): BatchNorm1d(64, eps=1e-05, momentum=0.1, affine=True, track_running_stats=True)
    (10): ReLU()
    (11): Dropout(p=0.1, inplace=False)
    (12): Linear(in_features=64, out_features=32, bias=True)
    (13): ReLU()
    (14): Dropout(p=0.1, inplace=False)
    (15): Linear(in_features=32, out_features=1, bias=True)
    (16): Sigmoid()
  )
)

--- Test-set metrics ---
Accuracy : 0.6898
ROC-AUC  : 0.6559
Precision: 0.7700
Recall   : 0.7847
F1       : 0.7773

Confusion matrix:
[[ 45  49]
 [ 45 164]]

Classification report:
              precision    recall  f1-score   support

           0       0.50      0.48      0.49        94
           1       0.77      0.78      0.78       209
…
